…
I0528 21:35:49.839359  5514 net.cpp:296] The NetState phase (0) differed from the phase (1) specified by a rule in layer catdog
I0528 21:35:49.839392  5514 net.cpp:296] The NetState phase (0) differed from the phase (1) specified by a rule in layer accuracy
I0528 21:35:49.839547  5514 net.cpp:53] Initializing net from parameters: 
state {
  phase: TRAIN
  level: 0
  stage: ""
}
layer {
  name: "catdog"
  type: "Data"
  top: "data"
  top: "label"
  include {
    phase: TRAIN
  }
  transform_param {
    scale: 0.0039215689
  }
  data_param {
    source: "/home/hzb/PycharmProjects/cat_dog/data_cat_dog/img_train_lmdb"
    batch_size: 60
    backend: LMDB
  }
}
layer {
  name: "conv1"
  type: "Convolution"
  bottom: "data"
  top: "conv1"
  param {
    lr_mult: 1
  }
  param {
    lr_mult: 2
  }
  convolution_param {
    num_output: 32
    pad: 1
    kernel_size: 3
    stride: 1
    weight_filler {
      type: "xavier"
    }
    bias_filler {
      type: "constant"
    }
  }
}
layer {
  name: "relu1"
  type: "ReLU"
  bottom: "conv1"
  top: "conv1"
}
layer {
  name: "conv2"
  type: "Convolution"
  bottom: "conv1"
  top: "conv2"
  param {
    lr_mult: 1
  }
  param {
    lr_mult: 2
  }
  convolution_param {
    num_output: 32
    pad: 1
    kernel_size: 3
    stride: 1
    weight_filler {
      type: "xavier"
    }
    bias_filler {
      type: "constant"
    }
  }
}
layer {
  name: "relu2"
  type: "ReLU"
  bottom: "conv2"
  top: "conv2"
}
layer {
  name: "pool1"
  type: "Pooling"
  bottom: "conv2"
  top: "pool1"
  pooling_param {
    pool: MAX
    kernel_size: 2
    stride: 2
  }
}
layer {
  name: "conv3"
  type: "Convolution"
  bottom: "pool1"
  top: "conv3"
  param {
    lr_mult: 1
  }
  param {
    lr_mult: 2
  }
  convolution_param {
    num_output: 64
    pad: 1
    kernel_size: 3
    stride: 1
    weight_filler {
      type: "xavier"
    }
    bias_filler {
      type: "constant"
    }
  }
}
layer {
  name: "relu3"
  type: "ReLU"
  bottom: "conv3"
  top: "conv3"
}
layer {
  name: "conv4"
  type: "Convolution"
  bottom: "conv3"
  top: "conv4"
  param {
    lr_mult: 1
  }
  param {
    lr_mult: 2
  }
  convolution_param {
    num_output: 64
    pad: 1
    kernel_size: 3
    stride: 1
    weight_filler {
      type: "xavier"
    }
    bias_filler {
      type: "constant"
    }
  }
}
layer {
  name: "relu4"
  type: "ReLU"
  bottom: "conv4"
  top: "conv4"
}
layer {
  name: "pool2"
  type: "Pooling"
  bottom: "conv4"
  top: "pool2"
  pooling_param {
    pool: MAX
    kernel_size: 2
    stride: 2
  }
}
layer {
  name: "conv5"
  type: "Convolution"
  bottom: "pool2"
  top: "conv5"
  param {
    lr_mult: 1
  }
  param {
    lr_mult: 2
  }
  convolution_param {
    num_output: 128
    pad: 1
    kernel_size: 3
    stride: 1
    weight_filler {
      type: "xavier"
    }
    bias_filler {
      type: "constant"
    }
  }
}
layer {
  name: "relu5"
  type: "ReLU"
  bottom: "conv5"
  top: "conv5"
}
layer {
  name: "conv6"
  type: "Convolution"
  bottom: "conv5"
  top: "conv6"
  param {
    lr_mult: 1
  }
  param {
    lr_mult: 2
  }
  convolution_param {
    num_output: 128
    pad: 1
    kernel_size: 3
    stride: 1
    weight_filler {
      type: "xavier"
    }
    bias_filler {
      type: "constant"
    }
  }
}
layer {
  name: "relu6"
  type: "ReLU"
  bottom: "conv6"
  top: "conv6"
}
layer {
  name: "pool3"
  type: "Pooling"
  bottom: "conv6"
  top: "pool3"
  pooling_param {
    pool: MAX
    kernel_size: 2
    stride: 2
  }
}
layer {
  name: "conv7"
  type: "Convolution"
  bottom: "pool3"
  top: "conv7"
  param {
    lr_mult: 1
  }
  param {
    lr_mult: 2
  }
  convolution_param {
    num_output: 256
    pad: 1
    kernel_size: 3
    stride: 1
    weight_filler {
      type: "xavier"
    }
    bias_filler {
      type: "constant"
    }
  }
}
layer {
  name: "relu7"
  type: "ReLU"
  bottom: "conv7"
  top: "conv7"
}
layer {
  name: "conv8"
  type: "Convolution"
  bottom: "conv7"
  top: "conv8"
  param {
    lr_mult: 1
  }
  param {
    lr_mult: 2
  }
  convolution_param {
    num_output: 256
    pad: 1
    kernel_size: 3
    stride: 1
    weight_filler {
      type: "xavier"
    }
    bias_filler {
      type: "constant"
    }
  }
}
layer {
  name: "relu8"
  type: "ReLU"
  bottom: "conv8"
  top: "conv8"
}
layer {
  name: "pool4"
  type: "Pooling"
  bottom: "conv8"
  top: "pool4"
  pooling_param {
    pool: MAX
    kernel_size: 2
    stride: 2
  }
}
layer {
  name: "ip1"
  type: "InnerProduct"
  bottom: "pool4"
  top: "ip1"
  param {
    lr_mult: 1
  }
  param {
    lr_mult: 2
  }
  inner_product_param {
    num_output: 256
    weight_filler {
      type: "xavier"
    }
    bias_filler {
      type: "constant"
    }
  }
}
layer {
  name: "drop1"
  type: "Dropout"
  bottom: "ip1"
  top: "ip1"
  dropout_param {
    dropout_ratio: 0.5
  }
}
layer {
  name: "ip2"
  type: "InnerProduct"
  bottom: "ip1"
  top: "ip2"
  param {
    lr_mult: 1
  }
  param {
    lr_mult: 2
  }
  inner_product_param {
    num_output: 256
    weight_filler {
      type: "xavier"
    }
    bias_filler {
      type: "constant"
    }
  }
}
layer {
  name: "relu9"
  type: "ReLU"
  bottom: "ip2"
  top: "ip2"
}
layer {
  name: "drop2"
  type: "Dropout"
  bottom: "ip2"
  top: "ip2"
  dropout_param {
    dropout_ratio: 0.5
  }
}
layer {
  name: "ip3"
  type: "InnerProduct"
  bottom: "ip2"
  top: "ip3"
  param {
    lr_mult: 1
  }
  param {
    lr_mult: 2
  }
  inner_product_param {
    num_output: 2
    weight_filler {
      type: "xavier"
    }
    bias_filler {
      type: "constant"
    }
  }
}
layer {
  name: "loss"
  type: "SoftmaxWithLoss"
  bottom: "ip3"
  bottom: "label"
  top: "loss"
}
I0528 21:35:49.839690  5514 layer_factory.hpp:77] Creating layer catdog
I0528 21:35:49.839794  5514 db_lmdb.cpp:35] Opened lmdb /home/hzb/PycharmProjects/cat_dog/data_cat_dog/img_train_lmdb
I0528 21:35:49.839817  5514 net.cpp:86] Creating Layer catdog
I0528 21:35:49.839823  5514 net.cpp:382] catdog -> data
I0528 21:35:49.839840  5514 net.cpp:382] catdog -> label
I0528 21:35:49.840628  5514 data_layer.cpp:45] output data size: 60,3,32,32
I0528 21:35:49.843487  5514 net.cpp:124] Setting up catdog
I0528 21:35:49.843525  5514 net.cpp:131] Top shape: 60 3 32 32 (184320)
I0528 21:35:49.843529  5514 net.cpp:131] Top shape: 60 (60)
I0528 21:35:49.843531  5514 net.cpp:139] Memory required for data: 737520
I0528 21:35:49.843538  5514 layer_factory.hpp:77] Creating layer conv1
I0528 21:35:49.843575  5514 net.cpp:86] Creating Layer conv1
I0528 21:35:49.843580  5514 net.cpp:408] conv1 <- data
I0528 21:35:49.843591  5514 net.cpp:382] conv1 -> conv1
I0528 21:35:50.030869  5514 net.cpp:124] Setting up conv1
I0528 21:35:50.030910  5514 net.cpp:131] Top shape: 60 32 32 32 (1966080)
I0528 21:35:50.030913  5514 net.cpp:139] Memory required for data: 8601840
I0528 21:35:50.030953  5514 layer_factory.hpp:77] Creating layer relu1
I0528 21:35:50.030982  5514 net.cpp:86] Creating Layer relu1
I0528 21:35:50.031002  5514 net.cpp:408] relu1 <- conv1
I0528 21:35:50.031008  5514 net.cpp:369] relu1 -> conv1 (in-place)
I0528 21:35:50.031210  5514 net.cpp:124] Setting up relu1
I0528 21:35:50.031216  5514 net.cpp:131] Top shape: 60 32 32 32 (1966080)
I0528 21:35:50.031236  5514 net.cpp:139] Memory required for data: 16466160
I0528 21:35:50.031239  5514 layer_factory.hpp:77] Creating layer conv2
I0528 21:35:50.031247  5514 net.cpp:86] Creating Layer conv2
I0528 21:35:50.031268  5514 net.cpp:408] conv2 <- conv1
I0528 21:35:50.031272  5514 net.cpp:382] conv2 -> conv2
I0528 21:35:50.032763  5514 net.cpp:124] Setting up conv2
I0528 21:35:50.032775  5514 net.cpp:131] Top shape: 60 32 32 32 (1966080)
I0528 21:35:50.032795  5514 net.cpp:139] Memory required for data: 24330480
I0528 21:35:50.032804  5514 layer_factory.hpp:77] Creating layer relu2
I0528 21:35:50.032826  5514 net.cpp:86] Creating Layer relu2
I0528 21:35:50.032830  5514 net.cpp:408] relu2 <- conv2
I0528 21:35:50.032835  5514 net.cpp:369] relu2 -> conv2 (in-place)
I0528 21:35:50.033001  5514 net.cpp:124] Setting up relu2
I0528 21:35:50.033007  5514 net.cpp:131] Top shape: 60 32 32 32 (1966080)
I0528 21:35:50.033027  5514 net.cpp:139] Memory required for data: 32194800
I0528 21:35:50.033030  5514 layer_factory.hpp:77] Creating layer pool1
I0528 21:35:50.033036  5514 net.cpp:86] Creating Layer pool1
I0528 21:35:50.033038  5514 net.cpp:408] pool1 <- conv2
I0528 21:35:50.033059  5514 net.cpp:382] pool1 -> pool1
I0528 21:35:50.033147  5514 net.cpp:124] Setting up pool1
I0528 21:35:50.033164  5514 net.cpp:131] Top shape: 60 32 16 16 (491520)
I0528 21:35:50.033166  5514 net.cpp:139] Memory required for data: 34160880
I0528 21:35:50.033169  5514 layer_factory.hpp:77] Creating layer conv3
I0528 21:35:50.033192  5514 net.cpp:86] Creating Layer conv3
I0528 21:35:50.033195  5514 net.cpp:408] conv3 <- pool1
I0528 21:35:50.033200  5514 net.cpp:382] conv3 -> conv3
I0528 21:35:50.034762  5514 net.cpp:124] Setting up conv3
I0528 21:35:50.034791  5514 net.cpp:131] Top shape: 60 64 16 16 (983040)
I0528 21:35:50.034795  5514 net.cpp:139] Memory required for data: 38093040
I0528 21:35:50.034802  5514 layer_factory.hpp:77] Creating layer relu3
I0528 21:35:50.034826  5514 net.cpp:86] Creating Layer relu3
I0528 21:35:50.034828  5514 net.cpp:408] relu3 <- conv3
I0528 21:35:50.034832  5514 net.cpp:369] relu3 -> conv3 (in-place)
I0528 21:35:50.035081  5514 net.cpp:124] Setting up relu3
I0528 21:35:50.035087  5514 net.cpp:131] Top shape: 60 64 16 16 (983040)
I0528 21:35:50.035090  5514 net.cpp:139] Memory required for data: 42025200
I0528 21:35:50.035110  5514 layer_factory.hpp:77] Creating layer conv4
I0528 21:35:50.035118  5514 net.cpp:86] Creating Layer conv4
I0528 21:35:50.035140  5514 net.cpp:408] conv4 <- conv3
I0528 21:35:50.035145  5514 net.cpp:382] conv4 -> conv4
I0528 21:35:50.036324  5514 net.cpp:124] Setting up conv4
I0528 21:35:50.036334  5514 net.cpp:131] Top shape: 60 64 16 16 (983040)
I0528 21:35:50.036355  5514 net.cpp:139] Memory required for data: 45957360
I0528 21:35:50.036358  5514 layer_factory.hpp:77] Creating layer relu4
I0528 21:35:50.036363  5514 net.cpp:86] Creating Layer relu4
I0528 21:35:50.036366  5514 net.cpp:408] relu4 <- conv4
I0528 21:35:50.036387  5514 net.cpp:369] relu4 -> conv4 (in-place)
I0528 21:35:50.036561  5514 net.cpp:124] Setting up relu4
I0528 21:35:50.036567  5514 net.cpp:131] Top shape: 60 64 16 16 (983040)
I0528 21:35:50.036586  5514 net.cpp:139] Memory required for data: 49889520
I0528 21:35:50.036589  5514 layer_factory.hpp:77] Creating layer pool2
I0528 21:35:50.036594  5514 net.cpp:86] Creating Layer pool2
I0528 21:35:50.036597  5514 net.cpp:408] pool2 <- conv4
I0528 21:35:50.036617  5514 net.cpp:382] pool2 -> pool2
I0528 21:35:50.036679  5514 net.cpp:124] Setting up pool2
I0528 21:35:50.036697  5514 net.cpp:131] Top shape: 60 64 8 8 (245760)
I0528 21:35:50.036700  5514 net.cpp:139] Memory required for data: 50872560
I0528 21:35:50.036701  5514 layer_factory.hpp:77] Creating layer conv5
I0528 21:35:50.036725  5514 net.cpp:86] Creating Layer conv5
I0528 21:35:50.036728  5514 net.cpp:408] conv5 <- pool2
I0528 21:35:50.036732  5514 net.cpp:382] conv5 -> conv5
I0528 21:35:50.038044  5514 net.cpp:124] Setting up conv5
I0528 21:35:50.038072  5514 net.cpp:131] Top shape: 60 128 8 8 (491520)
I0528 21:35:50.038075  5514 net.cpp:139] Memory required for data: 52838640
I0528 21:35:50.038081  5514 layer_factory.hpp:77] Creating layer relu5
I0528 21:35:50.038105  5514 net.cpp:86] Creating Layer relu5
I0528 21:35:50.038106  5514 net.cpp:408] relu5 <- conv5
I0528 21:35:50.038112  5514 net.cpp:369] relu5 -> conv5 (in-place)
I0528 21:35:50.038522  5514 net.cpp:124] Setting up relu5
I0528 21:35:50.038532  5514 net.cpp:131] Top shape: 60 128 8 8 (491520)
I0528 21:35:50.038552  5514 net.cpp:139] Memory required for data: 54804720
I0528 21:35:50.038553  5514 layer_factory.hpp:77] Creating layer conv6
I0528 21:35:50.038560  5514 net.cpp:86] Creating Layer conv6
I0528 21:35:50.038563  5514 net.cpp:408] conv6 <- conv5
I0528 21:35:50.038586  5514 net.cpp:382] conv6 -> conv6
I0528 21:35:50.040001  5514 net.cpp:124] Setting up conv6
I0528 21:35:50.040010  5514 net.cpp:131] Top shape: 60 128 8 8 (491520)
I0528 21:35:50.040030  5514 net.cpp:139] Memory required for data: 56770800
I0528 21:35:50.040035  5514 layer_factory.hpp:77] Creating layer relu6
I0528 21:35:50.040040  5514 net.cpp:86] Creating Layer relu6
I0528 21:35:50.040060  5514 net.cpp:408] relu6 <- conv6
I0528 21:35:50.040064  5514 net.cpp:369] relu6 -> conv6 (in-place)
I0528 21:35:50.040439  5514 net.cpp:124] Setting up relu6
I0528 21:35:50.040448  5514 net.cpp:131] Top shape: 60 128 8 8 (491520)
I0528 21:35:50.040468  5514 net.cpp:139] Memory required for data: 58736880
I0528 21:35:50.040472  5514 layer_factory.hpp:77] Creating layer pool3
I0528 21:35:50.040477  5514 net.cpp:86] Creating Layer pool3
I0528 21:35:50.040479  5514 net.cpp:408] pool3 <- conv6
I0528 21:35:50.040500  5514 net.cpp:382] pool3 -> pool3
I0528 21:35:50.040547  5514 net.cpp:124] Setting up pool3
I0528 21:35:50.040552  5514 net.cpp:131] Top shape: 60 128 4 4 (122880)
I0528 21:35:50.040572  5514 net.cpp:139] Memory required for data: 59228400
I0528 21:35:50.040575  5514 layer_factory.hpp:77] Creating layer conv7
I0528 21:35:50.040583  5514 net.cpp:86] Creating Layer conv7
I0528 21:35:50.040586  5514 net.cpp:408] conv7 <- pool3
I0528 21:35:50.040608  5514 net.cpp:382] conv7 -> conv7
I0528 21:35:50.043938  5514 net.cpp:124] Setting up conv7
I0528 21:35:50.043956  5514 net.cpp:131] Top shape: 60 256 4 4 (245760)
I0528 21:35:50.043958  5514 net.cpp:139] Memory required for data: 60211440
I0528 21:35:50.043983  5514 layer_factory.hpp:77] Creating layer relu7
I0528 21:35:50.043990  5514 net.cpp:86] Creating Layer relu7
I0528 21:35:50.044011  5514 net.cpp:408] relu7 <- conv7
I0528 21:35:50.044015  5514 net.cpp:369] relu7 -> conv7 (in-place)
I0528 21:35:50.044173  5514 net.cpp:124] Setting up relu7
I0528 21:35:50.044181  5514 net.cpp:131] Top shape: 60 256 4 4 (245760)
I0528 21:35:50.044201  5514 net.cpp:139] Memory required for data: 61194480
I0528 21:35:50.044203  5514 layer_factory.hpp:77] Creating layer conv8
I0528 21:35:50.044214  5514 net.cpp:86] Creating Layer conv8
I0528 21:35:50.044216  5514 net.cpp:408] conv8 <- conv7
I0528 21:35:50.044221  5514 net.cpp:382] conv8 -> conv8
I0528 21:35:50.048688  5514 net.cpp:124] Setting up conv8
I0528 21:35:50.048722  5514 net.cpp:131] Top shape: 60 256 4 4 (245760)
I0528 21:35:50.048725  5514 net.cpp:139] Memory required for data: 62177520
I0528 21:35:50.048732  5514 layer_factory.hpp:77] Creating layer relu8
I0528 21:35:50.048758  5514 net.cpp:86] Creating Layer relu8
I0528 21:35:50.048759  5514 net.cpp:408] relu8 <- conv8
I0528 21:35:50.048766  5514 net.cpp:369] relu8 -> conv8 (in-place)
I0528 21:35:50.048962  5514 net.cpp:124] Setting up relu8
I0528 21:35:50.048969  5514 net.cpp:131] Top shape: 60 256 4 4 (245760)
I0528 21:35:50.048988  5514 net.cpp:139] Memory required for data: 63160560
I0528 21:35:50.048990  5514 layer_factory.hpp:77] Creating layer pool4
I0528 21:35:50.048996  5514 net.cpp:86] Creating Layer pool4
I0528 21:35:50.048998  5514 net.cpp:408] pool4 <- conv8
I0528 21:35:50.049021  5514 net.cpp:382] pool4 -> pool4
I0528 21:35:50.049100  5514 net.cpp:124] Setting up pool4
I0528 21:35:50.049106  5514 net.cpp:131] Top shape: 60 256 2 2 (61440)
I0528 21:35:50.049126  5514 net.cpp:139] Memory required for data: 63406320
I0528 21:35:50.049129  5514 layer_factory.hpp:77] Creating layer ip1
I0528 21:35:50.049134  5514 net.cpp:86] Creating Layer ip1
I0528 21:35:50.049135  5514 net.cpp:408] ip1 <- pool4
I0528 21:35:50.049140  5514 net.cpp:382] ip1 -> ip1
I0528 21:35:50.051097  5514 net.cpp:124] Setting up ip1
I0528 21:35:50.051110  5514 net.cpp:131] Top shape: 60 256 (15360)
I0528 21:35:50.051111  5514 net.cpp:139] Memory required for data: 63467760
I0528 21:35:50.051121  5514 layer_factory.hpp:77] Creating layer drop1
I0528 21:35:50.051128  5514 net.cpp:86] Creating Layer drop1
I0528 21:35:50.051131  5514 net.cpp:408] drop1 <- ip1
I0528 21:35:50.051134  5514 net.cpp:369] drop1 -> ip1 (in-place)
I0528 21:35:50.051178  5514 net.cpp:124] Setting up drop1
I0528 21:35:50.051201  5514 net.cpp:131] Top shape: 60 256 (15360)
I0528 21:35:50.051203  5514 net.cpp:139] Memory required for data: 63529200
I0528 21:35:50.051205  5514 layer_factory.hpp:77] Creating layer ip2
I0528 21:35:50.051210  5514 net.cpp:86] Creating Layer ip2
I0528 21:35:50.051213  5514 net.cpp:408] ip2 <- ip1
I0528 21:35:50.051218  5514 net.cpp:382] ip2 -> ip2
I0528 21:35:50.051650  5514 net.cpp:124] Setting up ip2
I0528 21:35:50.051654  5514 net.cpp:131] Top shape: 60 256 (15360)
I0528 21:35:50.051656  5514 net.cpp:139] Memory required for data: 63590640
I0528 21:35:50.051678  5514 layer_factory.hpp:77] Creating layer relu9
I0528 21:35:50.051682  5514 net.cpp:86] Creating Layer relu9
I0528 21:35:50.051684  5514 net.cpp:408] relu9 <- ip2
I0528 21:35:50.051689  5514 net.cpp:369] relu9 -> ip2 (in-place)
I0528 21:35:50.051900  5514 net.cpp:124] Setting up relu9
I0528 21:35:50.051908  5514 net.cpp:131] Top shape: 60 256 (15360)
I0528 21:35:50.051928  5514 net.cpp:139] Memory required for data: 63652080
I0528 21:35:50.051929  5514 layer_factory.hpp:77] Creating layer drop2
I0528 21:35:50.051934  5514 net.cpp:86] Creating Layer drop2
I0528 21:35:50.051935  5514 net.cpp:408] drop2 <- ip2
I0528 21:35:50.051939  5514 net.cpp:369] drop2 -> ip2 (in-place)
I0528 21:35:50.051976  5514 net.cpp:124] Setting up drop2
I0528 21:35:50.051980  5514 net.cpp:131] Top shape: 60 256 (15360)
I0528 21:35:50.051982  5514 net.cpp:139] Memory required for data: 63713520
I0528 21:35:50.051985  5514 layer_factory.hpp:77] Creating layer ip3
I0528 21:35:50.052002  5514 net.cpp:86] Creating Layer ip3
I0528 21:35:50.052004  5514 net.cpp:408] ip3 <- ip2
I0528 21:35:50.052008  5514 net.cpp:382] ip3 -> ip3
I0528 21:35:50.052134  5514 net.cpp:124] Setting up ip3
I0528 21:35:50.052139  5514 net.cpp:131] Top shape: 60 2 (120)
I0528 21:35:50.052140  5514 net.cpp:139] Memory required for data: 63714000
I0528 21:35:50.052162  5514 layer_factory.hpp:77] Creating layer loss
I0528 21:35:50.052166  5514 net.cpp:86] Creating Layer loss
I0528 21:35:50.052168  5514 net.cpp:408] loss <- ip3
I0528 21:35:50.052171  5514 net.cpp:408] loss <- label
I0528 21:35:50.052196  5514 net.cpp:382] loss -> loss
I0528 21:35:50.052206  5514 layer_factory.hpp:77] Creating layer loss
…
I0528 21:35:50.053097  5514 solver.cpp:190] Creating test net (#0) specified by net file: /home/hzb/PycharmProjects/cat_dog/train_test.prototxt
I0528 21:35:50.053125  5514 net.cpp:296] The NetState phase (1) differed from the phase (0) specified by a rule in layer catdog
I0528 21:35:50.053253  5514 net.cpp:53] Initializing net from parameters: 
state {
  phase: TEST
}
layer {
  name: "catdog"
  type: "Data"
  top: "data"
  top: "label"
  include {
    phase: TEST
  }
  transform_param {
    scale: 0.0039215689
  }
  data_param {
    source: "/home/hzb/PycharmProjects/cat_dog/data_cat_dog/img_test_lmdb"
    batch_size: 50
    backend: LMDB
  }
}
layer {
  name: "conv1"
  type: "Convolution"
  bottom: "data"
  top: "conv1"
  param {
    lr_mult: 1
  }
  param {
    lr_mult: 2
  }
  convolution_param {
    num_output: 32
    pad: 1
    kernel_size: 3
    stride: 1
    weight_filler {
      type: "xavier"
    }
    bias_filler {
      type: "constant"
    }
  }
}
layer {
  name: "relu1"
  type: "ReLU"
  bottom: "conv1"
  top: "conv1"
}
layer {
  name: "conv2"
  type: "Convolution"
  bottom: "conv1"
  top: "conv2"
  param {
    lr_mult: 1
  }
  param {
    lr_mult: 2
  }
  convolution_param {
    num_output: 32
    pad: 1
    kernel_size: 3
    stride: 1
    weight_filler {
      type: "xavier"
    }
    bias_filler {
      type: "constant"
    }
  }
}
layer {
  name: "relu2"
  type: "ReLU"
  bottom: "conv2"
  top: "conv2"
}
layer {
  name: "pool1"
  type: "Pooling"
  bottom: "conv2"
  top: "pool1"
  pooling_param {
    pool: MAX
    kernel_size: 2
    stride: 2
  }
}
layer {
  name: "conv3"
  type: "Convolution"
  bottom: "pool1"
  top: "conv3"
  param {
    lr_mult: 1
  }
  param {
    lr_mult: 2
  }
  convolution_param {
    num_output: 64
    pad: 1
    kernel_size: 3
    stride: 1
    weight_filler {
      type: "xavier"
    }
    bias_filler {
      type: "constant"
    }
  }
}
layer {
  name: "relu3"
  type: "ReLU"
  bottom: "conv3"
  top: "conv3"
}
layer {
  name: "conv4"
  type: "Convolution"
  bottom: "conv3"
  top: "conv4"
  param {
    lr_mult: 1
  }
  param {
    lr_mult: 2
  }
  convolution_param {
    num_output: 64
    pad: 1
    kernel_size: 3
    stride: 1
    weight_filler {
      type: "xavier"
    }
    bias_filler {
      type: "constant"
    }
  }
}
layer {
  name: "relu4"
  type: "ReLU"
  bottom: "conv4"
  top: "conv4"
}
layer {
  name: "pool2"
  type: "Pooling"
  bottom: "conv4"
  top: "pool2"
  pooling_param {
    pool: MAX
    kernel_size: 2
    stride: 2
  }
}
layer {
  name: "conv5"
  type: "Convolution"
  bottom: "pool2"
  top: "conv5"
  param {
    lr_mult: 1
  }
  param {
    lr_mult: 2
  }
  convolution_param {
    num_output: 128
    pad: 1
    kernel_size: 3
    stride: 1
    weight_filler {
      type: "xavier"
    }
    bias_filler {
      type: "constant"
    }
  }
}
layer {
  name: "relu5"
  type: "ReLU"
  bottom: "conv5"
  top: "conv5"
}
layer {
  name: "conv6"
  type: "Convolution"
  bottom: "conv5"
  top: "conv6"
  param {
    lr_mult: 1
  }
  param {
    lr_mult: 2
  }
  convolution_param {
    num_output: 128
    pad: 1
    kernel_size: 3
    stride: 1
    weight_filler {
      type: "xavier"
    }
    bias_filler {
      type: "constant"
    }
  }
}
layer {
  name: "relu6"
  type: "ReLU"
  bottom: "conv6"
  top: "conv6"
}
layer {
  name: "pool3"
  type: "Pooling"
  bottom: "conv6"
  top: "pool3"
  pooling_param {
    pool: MAX
    kernel_size: 2
    stride: 2
  }
}
layer {
  name: "conv7"
  type: "Convolution"
  bottom: "pool3"
  top: "conv7"
  param {
    lr_mult: 1
  }
  param {
    lr_mult: 2
  }
  convolution_param {
    num_output: 256
    pad: 1
    kernel_size: 3
    stride: 1
    weight_filler {
      type: "xavier"
    }
    bias_filler {
      type: "constant"
    }
  }
}
layer {
  name: "relu7"
  type: "ReLU"
  bottom: "conv7"
  top: "conv7"
}
layer {
  name: "conv8"
  type: "Convolution"
  bottom: "conv7"
  top: "conv8"
  param {
    lr_mult: 1
  }
  param {
    lr_mult: 2
  }
  convolution_param {
    num_output: 256
    pad: 1
    kernel_size: 3
    stride: 1
    weight_filler {
      type: "xavier"
    }
    bias_filler {
      type: "constant"
    }
  }
}
layer {
  name: "relu8"
  type: "ReLU"
  bottom: "conv8"
  top: "conv8"
}
layer {
  name: "pool4"
  type: "Pooling"
  bottom: "conv8"
  top: "pool4"
  pooling_param {
    pool: MAX
    kernel_size: 2
    stride: 2
  }
}
layer {
  name: "ip1"
  type: "InnerProduct"
  bottom: "pool4"
  top: "ip1"
  param {
    lr_mult: 1
  }
  param {
    lr_mult: 2
  }
  inner_product_param {
    num_output: 256
    weight_filler {
      type: "xavier"
    }
    bias_filler {
      type: "constant"
    }
  }
}
layer {
  name: "drop1"
  type: "Dropout"
  bottom: "ip1"
  top: "ip1"
  dropout_param {
    dropout_ratio: 0.5
  }
}
layer {
  name: "ip2"
  type: "InnerProduct"
  bottom: "ip1"
  top: "ip2"
  param {
    lr_mult: 1
  }
  param {
    lr_mult: 2
  }
  inner_product_param {
    num_output: 256
    weight_filler {
      type: "xavier"
    }
    bias_filler {
      type: "constant"
    }
  }
}
layer {
  name: "relu9"
  type: "ReLU"
  bottom: "ip2"
  top: "ip2"
}
layer {
  name: "drop2"
  type: "Dropout"
  bottom: "ip2"
  top: "ip2"
  dropout_param {
    dropout_ratio: 0.5
  }
}
layer {
  name: "ip3"
  type: "InnerProduct"
  bottom: "ip2"
  top: "ip3"
  param {
    lr_mult: 1
  }
  param {
    lr_mult: 2
  }
  inner_product_param {
    num_output: 2
    weight_filler {
      type: "xavier"
    }
    bias_filler {
      type: "constant"
    }
  }
}
layer {
  name: "accuracy"
  type: "Accuracy"
  bottom: "ip3"
  bottom: "label"
  top: "accuracy"
  include {
    phase: TEST
  }
}
layer {
  name: "loss"
  type: "SoftmaxWithLoss"
  bottom: "ip3"
  bottom: "label"
  top: "loss"
}
I0528 21:35:50.053347  5514 layer_factory.hpp:77] Creating layer catdog
I0528 21:35:50.053390  5514 db_lmdb.cpp:35] Opened lmdb /home/hzb/PycharmProjects/cat_dog/data_cat_dog/img_test_lmdb
I0528 21:35:50.053401  5514 net.cpp:86] Creating Layer catdog
I0528 21:35:50.053407  5514 net.cpp:382] catdog -> data
I0528 21:35:50.053413  5514 net.cpp:382] catdog -> label
I0528 21:35:50.053550  5514 data_layer.cpp:45] output data size: 50,3,32,32
I0528 21:35:50.054977  5514 net.cpp:124] Setting up catdog
I0528 21:35:50.055008  5514 net.cpp:131] Top shape: 50 3 32 32 (153600)
I0528 21:35:50.055012  5514 net.cpp:131] Top shape: 50 (50)
I0528 21:35:50.055014  5514 net.cpp:139] Memory required for data: 614600
I0528 21:35:50.055017  5514 layer_factory.hpp:77] Creating layer label_catdog_1_split
I0528 21:35:50.055027  5514 net.cpp:86] Creating Layer label_catdog_1_split
I0528 21:35:50.055029  5514 net.cpp:408] label_catdog_1_split <- label
I0528 21:35:50.055037  5514 net.cpp:382] label_catdog_1_split -> label_catdog_1_split_0
I0528 21:35:50.055044  5514 net.cpp:382] label_catdog_1_split -> label_catdog_1_split_1
I0528 21:35:50.055171  5514 net.cpp:124] Setting up label_catdog_1_split
I0528 21:35:50.055203  5514 net.cpp:131] Top shape: 50 (50)
I0528 21:35:50.055215  5514 net.cpp:131] Top shape: 50 (50)
I0528 21:35:50.055218  5514 net.cpp:139] Memory required for data: 615000
I0528 21:35:50.055222  5514 layer_factory.hpp:77] Creating layer conv1
I0528 21:35:50.055233  5514 net.cpp:86] Creating Layer conv1
I0528 21:35:50.055236  5514 net.cpp:408] conv1 <- data
I0528 21:35:50.055241  5514 net.cpp:382] conv1 -> conv1
I0528 21:35:50.056350  5514 net.cpp:124] Setting up conv1
I0528 21:35:50.056362  5514 net.cpp:131] Top shape: 50 32 32 32 (1638400)
I0528 21:35:50.056365  5514 net.cpp:139] Memory required for data: 7168600
I0528 21:35:50.056375  5514 layer_factory.hpp:77] Creating layer relu1
I0528 21:35:50.056380  5514 net.cpp:86] Creating Layer relu1
I0528 21:35:50.056383  5514 net.cpp:408] relu1 <- conv1
I0528 21:35:50.056387  5514 net.cpp:369] relu1 -> conv1 (in-place)
I0528 21:35:50.056535  5514 net.cpp:124] Setting up relu1
I0528 21:35:50.056545  5514 net.cpp:131] Top shape: 50 32 32 32 (1638400)
I0528 21:35:50.056550  5514 net.cpp:139] Memory required for data: 13722200
I0528 21:35:50.056552  5514 layer_factory.hpp:77] Creating layer conv2
I0528 21:35:50.056561  5514 net.cpp:86] Creating Layer conv2
I0528 21:35:50.056565  5514 net.cpp:408] conv2 <- conv1
I0528 21:35:50.056569  5514 net.cpp:382] conv2 -> conv2
I0528 21:35:50.057687  5514 net.cpp:124] Setting up conv2
I0528 21:35:50.057698  5514 net.cpp:131] Top shape: 50 32 32 32 (1638400)
I0528 21:35:50.057703  5514 net.cpp:139] Memory required for data: 20275800
I0528 21:35:50.057709  5514 layer_factory.hpp:77] Creating layer relu2
I0528 21:35:50.057715  5514 net.cpp:86] Creating Layer relu2
I0528 21:35:50.057719  5514 net.cpp:408] relu2 <- conv2
I0528 21:35:50.057723  5514 net.cpp:369] relu2 -> conv2 (in-place)
I0528 21:35:50.057864  5514 net.cpp:124] Setting up relu2
I0528 21:35:50.057873  5514 net.cpp:131] Top shape: 50 32 32 32 (1638400)
I0528 21:35:50.057876  5514 net.cpp:139] Memory required for data: 26829400
I0528 21:35:50.057878  5514 layer_factory.hpp:77] Creating layer pool1
I0528 21:35:50.057886  5514 net.cpp:86] Creating Layer pool1
I0528 21:35:50.057889  5514 net.cpp:408] pool1 <- conv2
I0528 21:35:50.057893  5514 net.cpp:382] pool1 -> pool1
I0528 21:35:50.057929  5514 net.cpp:124] Setting up pool1
I0528 21:35:50.057934  5514 net.cpp:131] Top shape: 50 32 16 16 (409600)
I0528 21:35:50.057937  5514 net.cpp:139] Memory required for data: 28467800
I0528 21:35:50.057940  5514 layer_factory.hpp:77] Creating layer conv3
I0528 21:35:50.057950  5514 net.cpp:86] Creating Layer conv3
I0528 21:35:50.057953  5514 net.cpp:408] conv3 <- pool1
I0528 21:35:50.057971  5514 net.cpp:382] conv3 -> conv3
I0528 21:35:50.059105  5514 net.cpp:124] Setting up conv3
I0528 21:35:50.059118  5514 net.cpp:131] Top shape: 50 64 16 16 (819200)
I0528 21:35:50.059121  5514 net.cpp:139] Memory required for data: 31744600
I0528 21:35:50.059129  5514 layer_factory.hpp:77] Creating layer relu3
I0528 21:35:50.059135  5514 net.cpp:86] Creating Layer relu3
I0528 21:35:50.059139  5514 net.cpp:408] relu3 <- conv3
I0528 21:35:50.059144  5514 net.cpp:369] relu3 -> conv3 (in-place)
I0528 21:35:50.059286  5514 net.cpp:124] Setting up relu3
I0528 21:35:50.059294  5514 net.cpp:131] Top shape: 50 64 16 16 (819200)
I0528 21:35:50.059298  5514 net.cpp:139] Memory required for data: 35021400
I0528 21:35:50.059299  5514 layer_factory.hpp:77] Creating layer conv4
I0528 21:35:50.059307  5514 net.cpp:86] Creating Layer conv4
I0528 21:35:50.059311  5514 net.cpp:408] conv4 <- conv3
I0528 21:35:50.059316  5514 net.cpp:382] conv4 -> conv4
I0528 21:35:50.060624  5514 net.cpp:124] Setting up conv4
I0528 21:35:50.060636  5514 net.cpp:131] Top shape: 50 64 16 16 (819200)
I0528 21:35:50.060638  5514 net.cpp:139] Memory required for data: 38298200
I0528 21:35:50.060662  5514 layer_factory.hpp:77] Creating layer relu4
I0528 21:35:50.060667  5514 net.cpp:86] Creating Layer relu4
I0528 21:35:50.060670  5514 net.cpp:408] relu4 <- conv4
I0528 21:35:50.060674  5514 net.cpp:369] relu4 -> conv4 (in-place)
I0528 21:35:50.060823  5514 net.cpp:124] Setting up relu4
I0528 21:35:50.060840  5514 net.cpp:131] Top shape: 50 64 16 16 (819200)
I0528 21:35:50.060843  5514 net.cpp:139] Memory required for data: 41575000
I0528 21:35:50.060847  5514 layer_factory.hpp:77] Creating layer pool2
I0528 21:35:50.060851  5514 net.cpp:86] Creating Layer pool2
I0528 21:35:50.060854  5514 net.cpp:408] pool2 <- conv4
I0528 21:35:50.060858  5514 net.cpp:382] pool2 -> pool2
I0528 21:35:50.060890  5514 net.cpp:124] Setting up pool2
I0528 21:35:50.060896  5514 net.cpp:131] Top shape: 50 64 8 8 (204800)
I0528 21:35:50.060899  5514 net.cpp:139] Memory required for data: 42394200
I0528 21:35:50.060901  5514 layer_factory.hpp:77] Creating layer conv5
I0528 21:35:50.060907  5514 net.cpp:86] Creating Layer conv5
I0528 21:35:50.060911  5514 net.cpp:408] conv5 <- pool2
I0528 21:35:50.060916  5514 net.cpp:382] conv5 -> conv5
I0528 21:35:50.062739  5514 net.cpp:124] Setting up conv5
I0528 21:35:50.062762  5514 net.cpp:131] Top shape: 50 128 8 8 (409600)
I0528 21:35:50.062767  5514 net.cpp:139] Memory required for data: 44032600
I0528 21:35:50.062779  5514 layer_factory.hpp:77] Creating layer relu5
I0528 21:35:50.062793  5514 net.cpp:86] Creating Layer relu5
I0528 21:35:50.062799  5514 net.cpp:408] relu5 <- conv5
I0528 21:35:50.062806  5514 net.cpp:369] relu5 -> conv5 (in-place)
I0528 21:35:50.063069  5514 net.cpp:124] Setting up relu5
I0528 21:35:50.063082  5514 net.cpp:131] Top shape: 50 128 8 8 (409600)
I0528 21:35:50.063087  5514 net.cpp:139] Memory required for data: 45671000
I0528 21:35:50.063091  5514 layer_factory.hpp:77] Creating layer conv6
I0528 21:35:50.063103  5514 net.cpp:86] Creating Layer conv6
I0528 21:35:50.063109  5514 net.cpp:408] conv6 <- conv5
I0528 21:35:50.063118  5514 net.cpp:382] conv6 -> conv6
I0528 21:35:50.067103  5514 net.cpp:124] Setting up conv6
I0528 21:35:50.067127  5514 net.cpp:131] Top shape: 50 128 8 8 (409600)
I0528 21:35:50.067132  5514 net.cpp:139] Memory required for data: 47309400
I0528 21:35:50.067142  5514 layer_factory.hpp:77] Creating layer relu6
I0528 21:35:50.067150  5514 net.cpp:86] Creating Layer relu6
I0528 21:35:50.067157  5514 net.cpp:408] relu6 <- conv6
I0528 21:35:50.067164  5514 net.cpp:369] relu6 -> conv6 (in-place)
I0528 21:35:50.068280  5514 net.cpp:124] Setting up relu6
I0528 21:35:50.068296  5514 net.cpp:131] Top shape: 50 128 8 8 (409600)
I0528 21:35:50.068300  5514 net.cpp:139] Memory required for data: 48947800
I0528 21:35:50.068305  5514 layer_factory.hpp:77] Creating layer pool3
I0528 21:35:50.068317  5514 net.cpp:86] Creating Layer pool3
I0528 21:35:50.068323  5514 net.cpp:408] pool3 <- conv6
I0528 21:35:50.068331  5514 net.cpp:382] pool3 -> pool3
I0528 21:35:50.068395  5514 net.cpp:124] Setting up pool3
I0528 21:35:50.068405  5514 net.cpp:131] Top shape: 50 128 4 4 (102400)
I0528 21:35:50.068409  5514 net.cpp:139] Memory required for data: 49357400
I0528 21:35:50.068413  5514 layer_factory.hpp:77] Creating layer conv7
I0528 21:35:50.068424  5514 net.cpp:86] Creating Layer conv7
I0528 21:35:50.068430  5514 net.cpp:408] conv7 <- pool3
I0528 21:35:50.068439  5514 net.cpp:382] conv7 -> conv7
I0528 21:35:50.072530  5514 net.cpp:124] Setting up conv7
I0528 21:35:50.072552  5514 net.cpp:131] Top shape: 50 256 4 4 (204800)
I0528 21:35:50.072557  5514 net.cpp:139] Memory required for data: 50176600
I0528 21:35:50.072566  5514 layer_factory.hpp:77] Creating layer relu7
I0528 21:35:50.072576  5514 net.cpp:86] Creating Layer relu7
I0528 21:35:50.072582  5514 net.cpp:408] relu7 <- conv7
I0528 21:35:50.072589  5514 net.cpp:369] relu7 -> conv7 (in-place)
I0528 21:35:50.073176  5514 net.cpp:124] Setting up relu7
I0528 21:35:50.073194  5514 net.cpp:131] Top shape: 50 256 4 4 (204800)
I0528 21:35:50.073199  5514 net.cpp:139] Memory required for data: 50995800
I0528 21:35:50.073202  5514 layer_factory.hpp:77] Creating layer conv8
I0528 21:35:50.073216  5514 net.cpp:86] Creating Layer conv8
I0528 21:35:50.073221  5514 net.cpp:408] conv8 <- conv7
I0528 21:35:50.073231  5514 net.cpp:382] conv8 -> conv8
I0528 21:35:50.077932  5514 net.cpp:124] Setting up conv8
I0528 21:35:50.077975  5514 net.cpp:131] Top shape: 50 256 4 4 (204800)
I0528 21:35:50.077977  5514 net.cpp:139] Memory required for data: 51815000
I0528 21:35:50.077983  5514 layer_factory.hpp:77] Creating layer relu8
I0528 21:35:50.077988  5514 net.cpp:86] Creating Layer relu8
I0528 21:35:50.078009  5514 net.cpp:408] relu8 <- conv8
I0528 21:35:50.078014  5514 net.cpp:369] relu8 -> conv8 (in-place)
I0528 21:35:50.078207  5514 net.cpp:124] Setting up relu8
I0528 21:35:50.078214  5514 net.cpp:131] Top shape: 50 256 4 4 (204800)
I0528 21:35:50.078217  5514 net.cpp:139] Memory required for data: 52634200
I0528 21:35:50.078220  5514 layer_factory.hpp:77] Creating layer pool4
I0528 21:35:50.078243  5514 net.cpp:86] Creating Layer pool4
I0528 21:35:50.078246  5514 net.cpp:408] pool4 <- conv8
I0528 21:35:50.078251  5514 net.cpp:382] pool4 -> pool4
I0528 21:35:50.078305  5514 net.cpp:124] Setting up pool4
I0528 21:35:50.078310  5514 net.cpp:131] Top shape: 50 256 2 2 (51200)
I0528 21:35:50.078313  5514 net.cpp:139] Memory required for data: 52839000
I0528 21:35:50.078338  5514 layer_factory.hpp:77] Creating layer ip1
I0528 21:35:50.078344  5514 net.cpp:86] Creating Layer ip1
I0528 21:35:50.078347  5514 net.cpp:408] ip1 <- pool4
I0528 21:35:50.078352  5514 net.cpp:382] ip1 -> ip1
I0528 21:35:50.080274  5514 net.cpp:124] Setting up ip1
I0528 21:35:50.080286  5514 net.cpp:131] Top shape: 50 256 (12800)
I0528 21:35:50.080288  5514 net.cpp:139] Memory required for data: 52890200
I0528 21:35:50.080314  5514 layer_factory.hpp:77] Creating layer drop1
I0528 21:35:50.080322  5514 net.cpp:86] Creating Layer drop1
I0528 21:35:50.080327  5514 net.cpp:408] drop1 <- ip1
I0528 21:35:50.080330  5514 net.cpp:369] drop1 -> ip1 (in-place)
I0528 21:35:50.080353  5514 net.cpp:124] Setting up drop1
I0528 21:35:50.080358  5514 net.cpp:131] Top shape: 50 256 (12800)
I0528 21:35:50.080360  5514 net.cpp:139] Memory required for data: 52941400
I0528 21:35:50.080363  5514 layer_factory.hpp:77] Creating layer ip2
I0528 21:35:50.080366  5514 net.cpp:86] Creating Layer ip2
I0528 21:35:50.080369  5514 net.cpp:408] ip2 <- ip1
I0528 21:35:50.080374  5514 net.cpp:382] ip2 -> ip2
I0528 21:35:50.080763  5514 net.cpp:124] Setting up ip2
I0528 21:35:50.080770  5514 net.cpp:131] Top shape: 50 256 (12800)
I0528 21:35:50.080771  5514 net.cpp:139] Memory required for data: 52992600
I0528 21:35:50.080775  5514 layer_factory.hpp:77] Creating layer relu9
I0528 21:35:50.080781  5514 net.cpp:86] Creating Layer relu9
I0528 21:35:50.080783  5514 net.cpp:408] relu9 <- ip2
I0528 21:35:50.080787  5514 net.cpp:369] relu9 -> ip2 (in-place)
I0528 21:35:50.080987  5514 net.cpp:124] Setting up relu9
I0528 21:35:50.080996  5514 net.cpp:131] Top shape: 50 256 (12800)
I0528 21:35:50.081017  5514 net.cpp:139] Memory required for data: 53043800
I0528 21:35:50.081019  5514 layer_factory.hpp:77] Creating layer drop2
I0528 21:35:50.081023  5514 net.cpp:86] Creating Layer drop2
I0528 21:35:50.081027  5514 net.cpp:408] drop2 <- ip2
I0528 21:35:50.081030  5514 net.cpp:369] drop2 -> ip2 (in-place)
I0528 21:35:50.081053  5514 net.cpp:124] Setting up drop2
I0528 21:35:50.081058  5514 net.cpp:131] Top shape: 50 256 (12800)
I0528 21:35:50.081059  5514 net.cpp:139] Memory required for data: 53095000
I0528 21:35:50.081061  5514 layer_factory.hpp:77] Creating layer ip3
I0528 21:35:50.081066  5514 net.cpp:86] Creating Layer ip3
I0528 21:35:50.081069  5514 net.cpp:408] ip3 <- ip2
I0528 21:35:50.081073  5514 net.cpp:382] ip3 -> ip3
I0528 21:35:50.081166  5514 net.cpp:124] Setting up ip3
I0528 21:35:50.081171  5514 net.cpp:131] Top shape: 50 2 (100)
I0528 21:35:50.081173  5514 net.cpp:139] Memory required for data: 53095400
I0528 21:35:50.081177  5514 layer_factory.hpp:77] Creating layer ip3_ip3_0_split
I0528 21:35:50.081182  5514 net.cpp:86] Creating Layer ip3_ip3_0_split
I0528 21:35:50.081184  5514 net.cpp:408] ip3_ip3_0_split <- ip3
I0528 21:35:50.081189  5514 net.cpp:382] ip3_ip3_0_split -> ip3_ip3_0_split_0
I0528 21:35:50.081197  5514 net.cpp:382] ip3_ip3_0_split -> ip3_ip3_0_split_1
I0528 21:35:50.081228  5514 net.cpp:124] Setting up ip3_ip3_0_split
I0528 21:35:50.081243  5514 net.cpp:131] Top shape: 50 2 (100)
I0528 21:35:50.081245  5514 net.cpp:131] Top shape: 50 2 (100)
I0528 21:35:50.081248  5514 net.cpp:139] Memory required for data: 53096200
I0528 21:35:50.081249  5514 layer_factory.hpp:77] Creating layer accuracy
I0528 21:35:50.081254  5514 net.cpp:86] Creating Layer accuracy
I0528 21:35:50.081257  5514 net.cpp:408] accuracy <- ip3_ip3_0_split_0
I0528 21:35:50.081261  5514 net.cpp:408] accuracy <- label_catdog_1_split_0
I0528 21:35:50.081266  5514 net.cpp:382] accuracy -> accuracy
…
